…
          588
        ]
      ]
    },
    "n_epochs": 50,
    "n_epochs_print": 20,
    "n_batch_abort": 5000,
    "batch_size": 8
  },
  "test": {
    "data": {
      "seismic": "data/data_train.npz",
      "labels": "data/labels_train.npz",
      "sample_shape": [
        1004,
        1,
        588
      ],
      "subset": [
        [
          0,
          1004
        ],
        [
          751,
          782
        ],
        [
          0,
          588
        ]
      ]
    },
    "batch_size": 1
  }
}
********************
* assembling U-Net *
********************
encoder:
Sequential(
  (0): Conv2d(1, 45, kernel_size=(3, 3), stride=(1, 1))
  (1): BatchNorm2d(45, eps=1e-05, momentum=0.1, affine=True, track_running_stats=True)
  (2): ReLU(inplace=True)
  (3): Conv2d(45, 45, kernel_size=(3, 3), stride=(1, 1))
  (4): BatchNorm2d(45, eps=1e-05, momentum=0.1, affine=True, track_running_stats=True)
  (5): ReLU(inplace=True)
)
Sequential(
  (0): Conv2d(45, 90, kernel_size=(3, 3), stride=(1, 1))
  (1): BatchNorm2d(90, eps=1e-05, momentum=0.1, affine=True, track_running_stats=True)
  (2): ReLU(inplace=True)
  (3): Conv2d(90, 90, kernel_size=(3, 3), stride=(1, 1))
  (4): BatchNorm2d(90, eps=1e-05, momentum=0.1, affine=True, track_running_stats=True)
  (5): ReLU(inplace=True)
)
Sequential(
  (0): Conv2d(90, 180, kernel_size=(3, 3), stride=(1, 1))
  (1): BatchNorm2d(180, eps=1e-05, momentum=0.1, affine=True, track_running_stats=True)
  (2): ReLU(inplace=True)
  (3): Conv2d(180, 180, kernel_size=(3, 3), stride=(1, 1))
  (4): BatchNorm2d(180, eps=1e-05, momentum=0.1, affine=True, track_running_stats=True)
  (5): ReLU(inplace=True)
)
max_pooling:
MaxPool2d(kernel_size=2, stride=2, padding=0, dilation=1, ceil_mode=False)
crop:
ZeroPad2d((-40, -40, -40, -40))
ZeroPad2d((-16, -16, -16, -16))
ZeroPad2d((-4, -4, -4, -4))
bottleneck:
Sequential(
  (0): Conv2d(180, 180, kernel_size=(3, 3), stride=(1, 1))
  (1): BatchNorm2d(180, eps=1e-05, momentum=0.1, affine=True, track_running_stats=True)
  (2): ReLU(inplace=True)
  (3): Conv2d(180, 180, kernel_size=(3, 3), stride=(1, 1))
  (4): BatchNorm2d(180, eps=1e-05, momentum=0.1, affine=True, track_running_stats=True)
  (5): ReLU(inplace=True)
)
up_sampling:
Upsample(scale_factor=2.0, mode=bilinear)
decoder:
Sequential(
  (0): Conv2d(90, 45, kernel_size=(3, 3), stride=(1, 1))
  (1): BatchNorm2d(45, eps=1e-05, momentum=0.1, affine=True, track_running_stats=True)
  (2): ReLU(inplace=True)
  (3): Conv2d(45, 45, kernel_size=(3, 3), stride=(1, 1))
  (4): BatchNorm2d(45, eps=1e-05, momentum=0.1, affine=True, track_running_stats=True)
  (5): ReLU(inplace=True)
)
Sequential(
  (0): Conv2d(180, 45, kernel_size=(3, 3), stride=(1, 1))
  (1): BatchNorm2d(45, eps=1e-05, momentum=0.1, affine=True, track_running_stats=True)
  (2): ReLU(inplace=True)
  (3): Conv2d(45, 45, kernel_size=(3, 3), stride=(1, 1))
  (4): BatchNorm2d(45, eps=1e-05, momentum=0.1, affine=True, track_running_stats=True)
  (5): ReLU(inplace=True)
)
Sequential(
  (0): Conv2d(360, 90, kernel_size=(3, 3), stride=(1, 1))
  (1): BatchNorm2d(90, eps=1e-05, momentum=0.1, affine=True, track_running_stats=True)
  (2): ReLU(inplace=True)
  (3): Conv2d(90, 90, kernel_size=(3, 3), stride=(1, 1))
  (4): BatchNorm2d(90, eps=1e-05, momentum=0.1, affine=True, track_running_stats=True)
  (5): ReLU(inplace=True)
)
classification:
Conv2d(45, 8, kernel_size=(1, 1), stride=(1, 1))
*****************
* prepping data *
*****************
loading training dataset
shape padded: (1004, 750, 588)
shape: (1, 750, 1)
loading test data set
shape padded: (1004, 31, 588)
shape: (1, 31, 1)
deriving mean and standard deviation of training data
…
